ml/trained_model/CNN_model1.pt (torch, 117783 bytes, 6 tensors)

conv1.0.weight f4 [16, 1, 5, 5]
000000 bb 19 0f bb 1d ca ce bd a2 53 81 3d b1 b5 5f 3d
       -0.0021835405 -0.10097144 0.0631478 0.054616634
000010 fe 8a ff bd 94 ab da bd 48 f3 29 be a5 89 98 be
       -0.124776825 -0.10677257 -0.1659671 -0.29792514
000020 2e 1f 92 be bb af 20 be cb 32 82 3e 9f e5 55 3e
       -0.28539413 -0.15692036 0.25429377 0.20888375
000030 4c 34 1d 3e a9 35 ca 3e b2 a1 bb 3e 0f 7f 6e bd
       0.15351981 0.39494064 0.366468 -0.05822664
000040 3d 6b 7e 3e 5f fa ea 3d 73 1b 44 3e 2f 88 08 3c
       0.24845596 0.11473536 0.19151096 0.00833325
000050 5e 62 1c be ef 3a 27 be 65 9a 4f bd 54 87 ac be
       -0.15271899 -0.16331075 -0.05068435 -0.33696997
000060 f0 6f 83 be d4 b2 93 be b8 60 1c 3e 6a e5 9e 3d
       -0.2567134 -0.28847373 0.1527127 0.07758601
000070 40 fc ad 3d f1 a4 8c bd e5 c3 25 3e 6d 69 8e 3e
       0.084953785 -0.068673976 0.16188009 0.27814808
000080 2d e7 43 be a6 76 8b be 2f d0 1d 3e 75 2a c7 3e
       -0.19131155 -0.2723896 0.15411447 0.3889958
000090 ac 67 77 be 43 6d 70 bd 89 72 91 3d e3 5d 43 bc
       -0.24160641 -0.05869795 0.07101924 -0.01192424
0000a0 dd ad 5a be 65 52 c3 bd 77 5e 3d 3e 2c 5e bb bc
       -0.21355386 -0.095372 0.18493067 -0.022872053
0000b0 a0 3f 2b 3e 28 59 74 be f6 8b b7 3d ad 64 46 3d
       0.1672349 -0.23862135 0.08962242 0.048435856
0000c0 64 ff 51 be 9f c3 f0 3d 7c 65 bb bd df b0 69 3e
       -0.2050758 0.11756062 -0.09150216 0.22821377
0000d0 33 35 1f be f1 62 72 3e 5e 3d 6b bd 73 79 8b bd
       -0.15547638 0.23670556 -0.05743157 -0.06810274
0000e0 29 f4 8a 3e ab 9f 97 be 01 a0 8a 3e 9a 6f 26 3e
       0.27139404 -0.29614004 0.27075198 0.1625351
0000f0 61 dd 22 bd 38 74 f3 bb 0b c8 ee bd 01 db 4a bb
       -0.039761905 -0.007429626 -0.11659249 -0.003095329
000100 26 8f 85 3e 10 26 94 be 3a 05 4d bd 54 a6 5d be
       0.26085776 -0.2893529 -0.050053813 -0.2164548
000110 5a cf 4b 3e 97 89 bf 3d d8 d4 45 be 70 33 35 be
       0.19903317 0.09352415 -0.19319475 -0.17695403
000120 a9 27 3c be 27 fc e6 3d 49 51 94 3d ab 76 af be
       -0.18374504 0.11278563 0.072420664 -0.34270224
000130 01 e7 8f be 6f d3 56 be e8 6e 90 3e 32 74 0a 3e
       -0.2810593 -0.20979093 0.28209615 0.13520887
000140 46 75 96 3d 12 2f 99 3e 28 5c 46 3e 2c 3c d8 3e
       0.07346587 0.29918724 0.19371092 0.42233407
000150 2b 3e d6 be 5f 60 0f 3e b9 20 6c 3e f8 2d c1 bd
       -0.41844305 0.14001606 0.23059358 -0.09432596
000160 9c 2d d8 3b 7b a8 dd be 36 79 f4 bd 04 43 43 3e
       0.006597234 -0.43292603 -0.11937182 0.19068533
000170 9e 7f 81 3d 94 55 77 3e da 45 94 be 00 ac 0d 3d
       0.06323169 0.24153739 -0.28959543 0.03458786
000180 c5 b9 0d 3e 0a f8 36 3d 03 91 2c 3e 88 a1 c5 be
       0.13840397 0.044670142 0.16852193 -0.385998
000190 e6 a4 d7 bd 54 60 4b 3e a2 10 e9 be f8 06 65 3d
       -0.10529499 0.19860965 -0.45520502 0.05591485
0001a0 d2 7b cf 3d 79 f7 c3 3d e3 60 ee 3d ae 29 3e be
       0.10131039 0.09568686 0.116395734 -0.18570587
0001b0 96 00 1d be b7 97 69 be 1a 2a a2 be 3e a4 cf 3e
       -0.15332255 -0.22811781 -0.31672746 0.40554994
0001c0 bb b8 57 3d 62 e0 7a 3d 4c e6 66 be 70 66 a8 be
       0.052666407 0.061249144 -0.22548789 -0.32890654
0001d0 50 79 95 3e dc b7 7a 3e 39 59 29 bd 61 c8 9e 3e
       0.29194117 0.244842 -0.041344855 0.31012252
0001e0 15 e5 3c be de 16 45 3d 3c ff e8 3d 09 9e f3 3c
       -0.18446763 0.04811751 0.11376807 0.029738443
0001f0 e0 ea 06 be 24 e1 02 3e b8 a5 47 bb 86 d2 44 be
       -0.13175535 0.12781197 -0.0030463766 -0.19220933
000200 ac 38 9c 3c 8a 4a b6 3d e1 bd 28 3d e9 49 26 3e
       0.019069992 0.08900936 0.041196708 0.16239132
000210 02 f8 77 be a9 52 b4 be 10 50 c3 3c 52 c6 11 bd
       -0.24215701 -0.35219315 0.023841888 -0.035589524
000220 29 dd 72 3e 8f 97 c2 be e9 84 cd be c7 9b 67 be
       0.23717178 -0.38006255 -0.40140465 -0.22618018
000230 46 31 39 3e c7 b1 da 3e ae 68 fc bd 39 bd 4c be
       0.18085203 0.42713758 -0.123246536 -0.19994058
000240 fc 2c d2 bd ac 8f 42 3e da 2a 5d 3e aa 29 36 3e
       -0.10262486 0.19000119 0.21598378 0.17789331
000250 38 5e 7e 3e fc df 13 3c e0 61 24 be dc 27 50 3e
       0.24840629 0.00902557 -0.16052961 0.20327705
000260 aa 1d 8e 3e 4c d5 78 3e d5 7b 03 bb ed cd fd bd
       0.27757007 0.24300116 -0.0020062823 -0.12392793
000270 81 fe 99 3e 41 4f d8 3d dc 5e 94 bd 9c 66 cf be
       0.30076984 0.105619915 -0.072446555 -0.40507972
000280 5c ec 33 3e fd 56 9b 3e 8f e6 3f 3e f5 16 db be
       0.17570633 0.30339804 0.18740295 -0.42790952
000290 12 a7 4b bf 23 74 3f 3e cc ff 3e be 1b 1f 98 be
       -0.79551804 0.18696646 -0.18652266 -0.29711232
0002a0 72 e6 87 be 9c aa 25 bf ee a2 85 3d 2f 58 db bd
       -0.26543003 -0.64713454 0.06525217 -0.10710179
0002b0 30 81 5c bd b3 10 00 be ef 39 87 bd 7a 18 7c be
       -0.05383414 -0.1250637 -0.06602847 -0.24618712
0002c0 c6 c8 9e bb a6 95 94 3e 14 bc 27 be 2b e8 d8 3d
       -0.0048457114 0.29020423 -0.1638034 0.105911575
0002d0 0a f3 1b 3e 9c 2a c2 3e c7 49 07 3e ae bb 92 be
       0.15229431 0.37923133 0.13211738 -0.28658813
0002e0 31 92 56 3e ac f5 9b 3e e5 75 cc 3c 64 80 32 be
       0.20954205 0.3046087 0.02495856 -0.1743179
0002f0 e6 8b 01 3e 08 a8 f8 bd 5f 63 ec bd 27 54 83 be
       0.12651023 -0.121414244 -0.11542391 -0.2565014
000300 f1 71 41 be 0b f7 28 3e 10 6d 79 be 79 4e 83 3d
       -0.18891121 0.1650049 -0.2435801 0.06411452
000310 fb a4 99 be 5e c4 6d 3d 5b 4e 7e 3e 26 16 dd bd
       -0.30008683 0.0580486 0.24834578 -0.1079524
000320 d1 18 01 3e 58 e9 a4 be 16 df b9 3b f4 fd 2e 3e
       0.12607123 -0.32209277 0.005672346 0.17089063
000330 67 5c fd bd 6e 69 ac bd 52 c2 d8 3d be 40 e2 3d
       -0.1237114 -0.084185466 0.10583939 0.11047505
000340 bd 42 0f 3e 7c af a8 3d ad 7e 8b 3d 46 b1 6e 3e
       0.13990302 0.08236596 0.06811271 0.23309812
000350 d6 7c 70 3d 7a 5d ea 3c c3 1a 1c 3c 49 9e 32 bc
       0.058712803 0.028609026 0.009527865 -0.010901996
000360 9c 0d 14 3d e2 63 bd bd 32 03 02 bc 75 a6 97 bd
       0.03614579 -0.09247567 -0.007935332 -0.07404796
000370 10 3c 31 be 61 26 e1 bd 3d 01 84 3d 69 10 13 bd
       -0.17308068 -0.10993648 0.06445549 -0.03590432
000380 c4 18 74 bd af 98 85 3d 82 57 0b be f5 64 2a 3e
       -0.05959393 0.06523263 -0.136076 0.16640075
000390 3b 26 f4 3d fe f7 d6 3c 1a f7 8c 3b 61 58 4d 3e
       0.119213544 0.026241299 0.0043019177 0.20053245
0003a0 eb ac ed 3d eb ef 28 3e 64 a9 bc bc 81 9d d4 3d
       0.11605247 0.16497771 -0.02302999 0.10381604
0003b0 22 01 27 3e 67 d8 46 bd 26 f9 18 bd e2 27 03 3e
       0.16309026 -0.04854622 -0.03734698 0.12808183
0003c0 94 e0 51 3e b0 58 d3 bd fc 58 a3 bc 61 f2 25 3e
       0.20495826 -0.1031965 -0.019939892 0.16205741
0003d0 e2 68 7c 3d eb 07 38 3e f5 15 eb 3d 64 a8 56 be
       0.06162346 0.1797177 0.11478797 -0.20962673
0003e0 6d 5f 10 be 29 2a b7 be 86 e8 87 be 42 60 04 bf
       -0.14098902 -0.35774353 -0.2654459 -0.5170938
0003f0 85 f0 78 be 4a 77 03 3e 25 5d 8d 3e ca 20 e0 be
       -0.24310501 0.12838474 0.27610126 -0.43775016

conv1.0.bias f4 [16]
000000 cc 64 8d 3d 14 66 a6 3b 19 2e a8 3c be a6 52 bb
       0.06903991 0.0050780866 0.020529794 -0.0032142843
000010 07 20 ab 3d 70 92 a5 bb 60 33 40 3e 19 92 14 bc
       0.08355718 -0.005052857 0.18769598 -0.0090680355
000020 a0 05 b0 3d 7d dd 98 be df 15 43 3d 89 11 d0 bd
       0.08594823 -0.29856482 0.04762828 -0.101595946
000030 5f 50 bb ba cc 3f a8 bc bc b0 48 bb 54 f1 30 be
       -0.001429092 -0.020538233 -0.003062292 -0.1727956

conv2.0.weight f4 [32, 16, 5, 5]
000000 d5 93 bf bd 70 63 aa bd 9e 62 71 be 85 06 bb 3d
       -0.093543686 -0.083197474 -0.23572776 0.09132103
000010 52 96 26 3e bd 31 b1 be 03 d3 e3 bd 68 8e 54 3e
       0.1626828 -0.3460826 -0.11124232 0.20757449
000020 13 65 e1 3d 27 a9 af be b5 15 d9 bd 02 84 80 3c
       0.110056065 -0.3430874 -0.105998434 0.015687946
000030 55 04 98 3d 87 f4 80 3e d1 d1 22 3e 06 bb f4 3d
       0.07422701 0.2518656 0.15900351 0.119497344
000040 2c 17 1a 3e df 48 3b bd 7c 24 09 3e d7 50 9d 3d
       0.15047902 -0.045723792 0.13392824 0.076814346
000050 5b c6 c9 3d 5d 28 91 3c 7d 5f 83 3d a2 69 56 3e
       0.098522864 0.017719442 0.06414697 0.20938733
000060 e0 ca 27 3d 4a 18 b2 3d 82 1c 9b 3b 5c db 8e bc
       0.04096496 0.08696039 0.004733623 -0.017438583
000070 bb 44 65 bd cb fa f4 bd ff f3 47 3d 98 30 1a bd
       -0.05597375 -0.119618975 0.048816677 -0.037644
000080 56 64 71 3d 44 45 f2 bd f4 fc d7 bd 9a c5 d3 3c
       0.05893358 -0.118296176 -0.10546294 0.02585106
000090 30 99 da bd 10 c2 a3 3d 72 cf 0e 3e fe b1 92 bd
       -0.106737494 0.07995999 0.13946322 -0.071628556
0000a0 74 4d 1c bd b5 8f db bd ec 54 1c 3e 46 93 32 3e
       -0.038159803 -0.10720769 0.1526677 0.17438993
0000b0 ab 41 c6 3d d4 f8 c0 bd 57 9e 2b be 89 f7 6c bc
       0.09680494 -0.0942246 -0.1675962 -0.014463314
0000c0 3d 7f 40 bc b1 9e 51 3c 9f 6e 2d 3d 44 54 01 3e
       -0.011749086 0.012794183 0.042341825 0.12629801
0000d0 c8 d9 c6 bd c9 94 ab b9 2e 0f c1 bd 8d 9c f0 3d
       -0.09709507 -0.00032726515 -0.094267234 0.1174861
0000e0 29 fb f0 3d f9 62 bf bd d7 ca 42 bc 55 4f 69 be
       0.11766655 -0.093450494 -0.011889181 -0.22784169
0000f0 4a bc ff 3b 5c fa ea 3c 2c aa 85 3e 71 2d cc 3d
       0.007804428 0.028683834 0.26106393 0.09969605
000100 c9 23 98 be 80 bf a3 bd bf 44 1b be f7 b6 74 3e
       -0.29714802 -0.0799551 -0.15162943 0.2389792
000110 2d b6 9e 3e 75 0d 58 3e 5d 0a 90 be 54 47 6d be
       0.30998364 0.21098883 -0.28132907 -0.23171741
000120 a4 7c 8c 3d c4 c4 7b 3e 20 58 79 3e ce 11 00 be
       0.06859711 0.24586779 0.24350023 -0.12506792
000130 56 7d ef 3d 94 dc d5 3c df 83 c8 3c 73 67 1a bd
       0.11693828 0.026106156 0.024476944 -0.037696313
000140 58 57 85 bd fa 21 c3 bc 93 49 6d bd 5f b4 88 3d
       -0.065108 -0.023819912 -0.057931494 0.06675028
000150 a4 ea b0 bd d8 c7 cb bd 1b 5b a3 3d 38 31 98 3b
       -0.08638504 -0.099502265 0.07976361 0.004644539
000160 81 af 18 3d 95 22 4a 3c 51 ba 6a 3d ce a2 69 3d
       0.03727675 0.012337347 0.05730659 0.05704003
000170 bc 28 76 be d8 d9 2b be c0 be 9f 3b 4c dc e8 3d
       -0.24038976 -0.1678232 0.004875034 0.11370143
000180 f2 da d2 3c 9c c1 6f bd a5 3e 15 be 0c da 26 be
       0.025739167 -0.05853425 -0.14574678 -0.16294116
000190 7a ca 02 3d 2f d9 9b bd bb ab 4b 3d f2 8c de 3c
       0.031931378 -0.07609784 0.04972432 0.027166817
0001a0 33 d4 97 3d 51 63 ef 3d d0 be f2 bc ed 41 6a 3e
       0.07413521 0.11688865 -0.029632002 0.22876711
0001b0 76 a9 5f bd a0 56 e0 bd 7c 03 e3 3c 0a 85 b3 bc
       -0.05460497 -0.109540224 0.027711622 -0.021914024
0001c0 4b c4 07 bd 45 be d4 3d cc 98 f9 3d cc b3 44 bd
       -0.033146184 0.103878535 0.12187347 -0.04802303
0001d0 5a 67 11 be 9c fd 89 be 19 c4 9a bd b1 fa 3e 3d
       -0.14199582 -0.269513 -0.07556934 0.046625797
0001e0 3b c5 fa 3c dd d8 3c 3d 1e a6 1b 3d fd ca 9e bd
       0.030611625 0.046105254 0.03800022 -0.07753561
0001f0 4b 19 94 bd b9 9b c4 3d c0 53 19 be 98 5b 34 3e
       -0.07231387 0.09600014 -0.14973354 0.17613065
000200 d1 88 15 be 2f 0e 48 bd 0e 44 ae 3c 13 4c 2a be
       -0.14602973 -0.04884165 0.021272685 -0.16630583
000210 32 e4 2f 3e 6f 36 ff 3d 7b a2 cd 3d eb 11 ce bd
       0.17176893 0.12461554 0.10040756 -0.10062011
000220 4d 7f 47 be e9 62 ba bd d4 7d 91 3c cb 30 4b 3e
       -0.19482155 -0.09100897 0.017760195 0.19842832
000230 e9 52 34 be f9 de 59 bd c2 e2 a1 be 6a f9 92 be
       -0.17609753 -0.05319116 -0.31618315 -0.28705913
000240 21 40 a4 3c 4b 1b 13 3e ab 8e d0 3e ee 51 36 3e
       0.02005011 0.1436588 0.40733847 0.17804691
000250 79 36 08 3e a8 95 50 bd b2 27 c3 bd 23 d8 62 bd
       0.1330203 -0.050923973 -0.09529056 -0.055381905
000260 d1 7b b1 3d 54 6e df bd db 72 e3 3d 87 cf 02 be
       0.08666194 -0.10909715 0.11105891 -0.12774478
000270 b0 1d 1e be 3b 26 8e bb e9 cd 17 3e 5e de 31 3e
       -0.15441012 -0.0043380535 0.14824642 0.17369983
000280 ef 18 34 be 32 97 33 be cd 3a 88 bd 4e 1f c7 bd
       -0.17587636 -0.17538145 -0.0665184 -0.09722768
000290 87 4c 2d be 05 96 4e 3e 8d 0a 9b 3e 00 3b ae 3d
       -0.16923724 0.20174415 0.30281487 0.08507347
0002a0 17 af 65 be c2 39 91 be 3b 49 54 3e 59 f4 8f 3e
       -0.22430073 -0.28364378 0.2073106 0.2811611
0002b0 fa 94 83 3d 76 d5 5a bd ac a7 ec bd 52 6b c1 bd
       0.064248994 -0.05342623 -0.11555418 -0.09444298
0002c0 b8 61 84 bc 56 95 46 3c d9 86 12 3d 5b 3a e1 bb
       -0.016159877 0.012120565 0.035773132 -0.0068734116
0002d0 21 ac a3 bb 40 87 d2 bd 71 10 5d bd d1 57 01 be
       -0.0049948846 -0.10279703 -0.053970758 -0.12631156
0002e0 77 bf a3 3d 10 ff 13 bd 02 37 f6 bc 15 d6 e2 3c
       0.079955034 -0.03613192 -0.030055527 0.027689973
0002f0 16 07 bf 3c 2a 8b 25 be 4f f2 71 3e 73 63 c1 3d
       0.023318809 -0.16166368 0.2362759 0.094427966
000300 5f 6e 60 3e 5b 99 22 bc 0f 1f 2a 3d 97 5c c7 bc
       0.21917103 -0.009924258 0.041533526 -0.024336142
000310 c1 4b 79 3c df 2c 87 ba e0 a8 d6 bd 32 1b 67 bd
       0.015215815 -0.0010313055 -0.10481429 -0.05642242
000320 74 92 14 be 9f b3 06 bd fb fe b9 bb 8c eb 87 bd
       -0.14508992 -0.032886144 -0.005676148 -0.06636724
000330 cd f5 95 3d ec 6b d1 bd b9 97 a8 3b 1a 8f c2 bd
       0.073222734 -0.102256626 0.00514504 -0.09499951
000340 25 1a 89 3d f4 e4 73 3d 6a 3b b0 bd 9a 77 81 3d
       0.0669444 0.05954452 -0.08605082 0.0632164
000350 18 6b 88 3d 93 5f cc 3d 4e 62 bd 3c ea 2c d6 3c
       0.066610515 0.09979167 0.023118164 0.026144464
000360 4d c2 c8 bc f8 d7 8b 3d 38 57 d3 3d 57 67 d2 3d
       -0.024506712 0.06828302 0.1031937 0.10273617
000370 07 1b ca 3c fd f3 b9 bd fe 10 8c bd 4c 4f 19 bd
       0.02467109 -0.0907974 -0.068391785 -0.03742914
000380 7e 5f 9c 3d 88 74 8e bd 6c 88 b1 bd 31 ab 92 bc
       0.07635401 -0.0695582 -0.086685985 -0.017903896
000390 9c 13 16 3d 35 b6 98 bd ec 5e 01 be 56 58 5e bd
       0.036639795 -0.07456628 -0.12633866 -0.054283462
0003a0 b8 9f 7e bd 99 c2 bf bd 70 95 91 bd 6e b7 d3 bd
       -0.06216404 -0.093632884 -0.07108581 -0.10337721
0003b0 ec 35 82 3d 49 d5 05 3b a6 de 52 bd bc 00 cd bd
       0.06357941 0.0020421317 -0.051481865 -0.10009906
0003c0 64 c6 c8 3c 81 4d 6f 3d c0 9f 12 bd 79 e4 41 3c
       0.024508663 0.058423523 -0.03579688 0.011834257
0003d0 f2 3a 14 bd 3e 89 69 bd d1 5b 81 bc ab 51 e9 bc
       -0.036189027 -0.05701565 -0.015790852 -0.028481325
0003e0 40 da 60 bd 54 9f 13 bd f1 63 99 bb fe a4 14 3e
       -0.05489564 -0.03604062 -0.0046811034 0.14516065
0003f0 af db 83 3c c7 e8 98 3d c5 84 86 3d 65 3d ad 3d
       0.016095964 0.07466274 0.065682925 0.08458976

conv2.0.bias f4 [32]
000000 dc 07 28 bd f1 e8 62 3d dd fb 13 3d 95 e1 db 3d
       -0.04102312 0.05539793 0.036128867 0.10736386
000010 76 72 ea 3c 3f 99 6c bd 09 6b 3b bd 9d 94 fb 3c
       0.028619032 -0.057763334 -0.045756374 0.030710513
000020 f3 f1 60 3d 6b 46 7c 3c 34 3b ab 3d 86 bb c6 3c
       0.05491824 0.015397648 0.083609015 0.02425934
000030 6a 54 34 bd 17 f2 99 3d 01 f9 f8 3c 6c 8b c7 3d
       -0.044025816 0.07516878 0.030392172 0.097433895
000040 06 fe 20 bd 73 4c 3a 3d 89 90 01 3e ce 28 a9 3c
       -0.039304756 0.045483064 0.12652792 0.02064934
000050 33 d8 91 3c 30 ed 3c 3e 5c f4 b3 3d 08 2a f4 3d
       0.017803287 0.18449855 0.08786842 0.11922079
000060 72 6e cb 3d e5 89 d3 3d b8 1a f5 bc 4d 6a e8 3c
       0.09933175 0.10329036 -0.029919967 0.028371
000070 fe 05 1c bb e3 00 60 3d 8b 46 06 3e e0 c2 10 be
       -0.0023807283 0.054688346 0.13112848 -0.14136839

out.weight f4 [10, 1568]
000000 8a d9 bb 3c 0b c4 ce bc 9c 7f ad 3d e3 87 b7 3c
       0.02293088 -0.025239965 0.08471605 0.022403663
000010 ed ef ba 3d bc 2b 64 bd 24 e6 da 3c a9 21 a0 3d
       0.091277935 -0.05570577 0.026721068 0.0781892
000020 b6 8c 93 bd d3 1d da bd 3f f3 d1 3d fe b6 10 bd
       -0.07204573 -0.1065022 0.10251474 -0.035330765
000030 4b 7f 03 3d 8e 9f da 3d 2e 38 aa 3d 80 06 b0 3d
       0.032103818 0.10674964 0.08311497 0.0859499
000040 0b 25 75 bd 88 9c 09 bd 6d d2 bf 3d 25 7a 0f bd
       -0.05984978 -0.033596545 0.093663074 -0.035028595
000050 1d 22 02 3e 29 b3 b5 3d 76 06 42 bd 1f 6f 25 be
       0.12708326 0.08872063 -0.047369443 -0.1615567
000060 78 24 80 bd 76 2f 9b 3d b1 58 6c bd 0d 85 90 bd
       -0.06256956 0.07577412 -0.05770177 -0.070566274
000070 4c 35 44 3c 15 2d 99 bc 70 d0 ce 3b 7f 77 0c bd
       0.011975598 -0.018698255 0.006311469 -0.034293648
000080 70 44 d6 3d 76 20 ea bd 8c 11 2e 3c 35 4b 27 be
       0.10462272 -0.11431973 0.010624301 -0.16337283
000090 73 8b 43 bd 8e 67 95 3d 62 79 87 bd 90 41 0a 3e
       -0.04774041 0.07295142 -0.06614949 0.13501573
0000a0 b4 a3 76 3d 1a e5 9f 3d 71 9d 56 3d a9 37 70 bd
       0.060214713 0.078073695 0.05239624 -0.05864683
0000b0 32 52 8d 3c 6a 4d 07 3d d6 e3 c5 bc f7 ff 4f bd
       0.017251108 0.033032812 -0.024156492 -0.050781216
0000c0 d5 ee 25 bd ab 45 a9 3d 03 75 98 bc 61 27 c0 3d
       -0.04051097 0.08265241 -0.018610483 0.09382511
0000d0 3d c7 ed 3c 9c f7 2c 3e 13 e5 df be e1 5b 02 be
       0.029025668 0.1689133 -0.43729457 -0.12730362
0000e0 c1 57 bb 3d 12 3e 8f bd c0 47 98 3c bd 3e ab 3d
       0.09147597 -0.06994261 0.0185889 0.08361576
0000f0 24 3a b8 3d 5c 04 10 bd 2a da 77 3d fe d3 5e 3d
       0.089954644 -0.035160407 0.06051079 0.05440139
000100 8c 14 01 3e 7b be 8f 3d 86 68 d7 3d 47 1f ae 3d
       0.12605494 0.07018753 0.10517983 0.085020594
000110 67 b0 cb 3b f1 e0 f5 3d bc 89 95 bc fe ce f1 3c
       0.006216097 0.12005795 -0.018254153 0.029517647
000120 79 f3 99 bd 4e a9 84 3d 32 27 2e 3e bb 39 60 bc
       -0.07517142 0.06477605 0.1700714 -0.013685639
000130 43 6e b3 3d 5e e4 b1 bd a2 b0 ca b9 9f f6 c8 bd
       0.08761265 -0.08686136 -0.00038660044 -0.09812664
000140 f9 5f ae 3d 18 40 94 3d 32 ec 1d bd 46 4a 17 3d
       0.08514399 0.072387874 -0.03855533 0.036936067
000150 25 72 07 be 73 0f c7 bb 58 c6 f6 bd cf 56 62 3d
       -0.13227136 -0.0060748397 -0.1204955 0.05525857
000160 c9 8e ae 3c a0 c3 85 bd 29 9e 9a bd 90 4e 54 bd
       0.02130832 -0.06531453 -0.07549698 -0.051832736
000170 ed fd 8b bd b6 1a 8e 3c ad 70 72 bc 6f 10 8b bc
       -0.06835542 0.017346721 -0.014797372 -0.01697561
000180 e2 10 85 bc c5 ae 08 be 32 b0 65 be ec 64 36 3d
       -0.016243402 -0.1334792 -0.22430494 0.04452984
000190 26 14 c0 3c 38 9b 67 bd 1c 19 bc bd 0b 62 56 bc
       0.023447108 -0.056544513 -0.09184477 -0.013084899
0001a0 3e a2 a8 3c 00 58 b0 bd ba 51 cb bd 48 bc 7d bd
       0.020585176 -0.08610535 -0.099276975 -0.061947137
0001b0 b8 ce 96 3c 34 16 ab 3c d9 98 c5 bd 41 90 1d bc
       0.018409118 0.02088461 -0.09648294 -0.009616912
0001c0 bf 1a a9 3d 33 26 7d bd c9 95 1d be 1b e2 59 bd
       0.082570545 -0.061804008 -0.1538917 -0.053194147
0001d0 e7 bb b8 3c 95 35 b6 3d 21 eb ec bb 8e 18 e3 3d
       0.022550536 0.08896939 -0.007230178 0.11088668
0001e0 c3 18 db bd b2 bc 72 be d6 e9 8c 3d a1 22 46 3d
       -0.10698082 -0.23704794 0.06880538 0.04837287
0001f0 ed 5a 78 3d 5e 48 63 3c 55 1c 9d 3d a6 d7 c6 3c
       0.06063359 0.013872234 0.076714195 0.024272751
000200 bd 2e a9 bd f1 c9 d7 3d 97 44 c9 3c ee b7 74 3d
       -0.08260868 0.10536564 0.024568839 0.05974572
000210 14 41 04 3d a8 5b 01 b9 0b 18 81 3d fa 62 29 be
       0.032288626 -0.00012336543 0.06303414 -0.16541663
000220 e0 ee 6f bc f3 b7 98 3d 7d 0b 94 3d f4 07 f1 ba
       -0.014644355 0.074569605 0.07228754 -0.0018389211
000230 67 10 6f bd d0 cf 24 bc 3b a7 bd be f9 40 91 bd
       -0.058365252 -0.010059312 -0.3704165 -0.07092471
000240 7d 1b 9c 3c d9 d6 b9 3d 65 ab 74 3d 4f 24 e6 bd
       0.019056076 0.09074182 0.059733767 -0.11237394
000250 05 d6 88 bd 13 9c f5 3c 6d 5e bc bd 73 94 62 bc
       -0.06681446 0.029981649 -0.09197698 -0.013829338
000260 ef 56 94 3d 82 77 ad 3b ed 39 c8 3d 43 40 28 bd
       0.07243144 0.0052937875 0.097766735 -0.04107691
000270 e4 47 b1 bd 6e 78 67 bd 62 7d e0 3d a2 86 eb bc
       -0.0865629 -0.056511335 0.10961415 -0.028750721
000280 40 f5 51 3d aa 46 48 3e ab 54 75 bb 30 44 3f b9
       0.05125928 0.19558206 -0.00374345 -0.00018240581
000290 38 b1 18 3d 91 b8 c6 3d c9 a4 60 bd c3 f5 9c 3b
       0.037278384 0.09703172 -0.05484465 0.0047900393
0002a0 dd db 12 3e e9 17 a3 3d 8a d2 33 3d 0e cc 28 3a
       0.14341684 0.07963545 0.043901958 0.0006439098
0002b0 8a e8 b1 bd db b9 8d bd c0 d7 f3 bd 45 67 0f 3e
       -0.086869314 -0.06920215 -0.119063854 0.14004238
0002c0 bd 4f 88 bc 6d fc 3f 3c f1 4c 11 3d ec 47 35 3d
       -0.016639585 0.011717898 0.035473768 0.044258043
0002d0 86 10 20 bd a3 d3 1a 3a 9e 0b a4 3d 3c 4f 90 3c
       -0.039078258 0.000590617 0.08010028 0.017615907
0002e0 6d b6 83 bd 80 cf 07 3d 65 b4 da bb 74 cf 08 be
       -0.06431279 0.03315687 -0.0066743367 -0.13360387
0002f0 31 d4 5b 3d 5c 3c 17 bd 6b 52 02 3e 50 f9 76 3d
       0.05366916 -0.036922798 0.12726752 0.060296357
000300 db 1b 65 3c 28 98 41 3d 85 d0 f0 bd 81 53 8f 3d
       0.013983692 0.047264248 -0.11758522 0.06998349
000310 18 d4 e6 bc f9 c6 d6 3c 14 1e 5e 3e dd 08 61 be
       -0.028177306 0.026217924 0.21691161 -0.21976037
000320 4b 7c f4 3d 25 53 34 3e 0b fd 97 be a0 49 ab bc
       0.119377695 0.17609842 -0.29685244 -0.02090913
000330 75 e5 b4 bc 66 47 10 bd df e9 8d bc f2 d0 43 bd
       -0.02208207 -0.03522434 -0.017323432 -0.047806688
000340 14 14 c8 3d 8c a6 f3 bb fc 6f 86 3c b2 b2 8b 3d
       0.097694546 -0.0074356254 0.01641082 0.06821193
000350 01 7d 23 be 5c 58 b3 3d f0 59 d1 3d f5 87 82 3d
       -0.15965654 0.087570876 0.10222232 0.06373588
000360 24 5e 0c 3d d9 a3 8f 3c 35 57 56 3d 78 fd d3 bc
       0.034269467 0.017534183 0.05232926 -0.0258777
000370 94 b4 47 bd 6e 16 da 3d d3 5f 89 3d 8b d0 a1 bd
       -0.048756197 0.106488094 0.0670773 -0.079011045
000380 88 f2 d5 bc e5 f9 b4 3b d8 39 6b bd 7a e6 e3 bd
       -0.026116624 0.005522954 -0.05742821 -0.11127944
000390 36 2a b0 3c f3 7d bc 3c 55 ad 08 bd 6b 8f 01 bd
       0.021504503 0.023009276 -0.033368427 -0.031630915
0003a0 91 28 0a 3c 48 f2 41 bd 11 00 d7 3c 0e a6 15 be
       0.008432523 -0.047350198 0.026245149 -0.14614126
0003b0 33 ed 81 3c c4 50 4b 3d d5 d3 7c bd 72 e6 34 bd
       0.015860176 0.04963757 -0.061725456 -0.044165082
0003c0 25 7c b8 bd 0e ea 2c bd 48 be 87 bd 68 27 e1 bd
       -0.09008054 -0.0422154 -0.0662809 -0.10993844
0003d0 b3 8c f3 bb da e4 55 bc 3e 26 01 3e 07 53 e5 b9
       -0.007432544 -0.013055051 0.12612244 -0.00043740144
0003e0 43 87 2c 3b ba 46 21 3c 9a 8e c4 bc 87 ea bb bc
       0.002632574 0.009843523 -0.023993779 -0.02293898
0003f0 b7 d9 b0 bc 2a 6e 69 3d 55 92 23 bd 15 19 5c 3d
       -0.02158819 0.056989826 -0.039934475 0.053734858

out.bias f4 [10]
000000 ff cd a4 3c cb 34 aa bd 6c f9 0b 3d b0 9e b1 3c
       0.020117758 -0.08310851 0.034173414 0.021682113
000010 57 ce b5 bd 24 13 1b bd a8 0e 4a 3d 16 83 d6 3d
       -0.08877247 -0.03786005 0.049330384 0.104742214
000020 e7 f9 42 bc 0f 43 3d 3b
       -0.011900402 0.0028879081
