ml/trained_model/CNN_model1.pt (torch, 117783 bytes, 6 tensors)

conv1.0.weight f4 [16, 1, 5, 5]
00000000: 07d1 8b3e 1da2 c4be a84b 40be 0cde 6fbe
00000010: f87c 003d 9285 ee3e 4fe5 b3be 0df8 93be
00000020: ffb9 0e3e e363 41be 6fdb 8f3e f566 34bc
00000030: 48c2 363e 067a 043e 522a f8bd 80b4 583e
00000040: cbd9 acbe 675c d4bd 2cda 823e 2b16 823e
00000050: f253 593e eb7a 35be 9b6d 8bbe 59b9 5c3e
00000060: bc4b 41bc 66f4 c33d c84b 903e 5a8b 403d
00000070: c839 87be edeb 273e 8e19 403e 9904 6d3e
00000080: f62f 9e3e 693d 6fbe fbdd 0ebe 9443 383e
00000090: 05a2 453e 76a1 a43d d35c 0f3c 0fc4 c33d
000000a0: b9e4 88be 001b 9abe 6994 51be 6a0f 7abc
000000b0: 5be6 61bd 5400 043e a7d2 4bbe 2e8b 41be
000000c0: 126b f93d eafd e1bd 4816 cd3d cfa4 19bc
000000d0: eb11 8bbe 7409 2ebe fe05 c53d 1a69 063e
000000e0: 14a0 0fbe f97e f3bd 8a65 313e 5f74 dbbc
000000f0: d18f 93be f3b6 56be e60a d13e 8544 373d
00000100: 54fb cfbd 6b92 933c 6486 ef3d fa04 133e
00000110: 100d 37be b36e 68bd b7ad c4bd 3e23 52be
00000120: 26a0 c53d 35d3 1ebd c727 803d 515e 003b
00000130: d390 ed3d bd6b 1ebe e673 22be 2ec3 a93c
00000140: e012 65bc 897d fbbd cfb7 95bd c53b 923c
00000150: 18df c33d b0e5 8b3e 9fe6 233e 0f65 8e3e
00000160: 44f0 883d 77e3 5d3d e013 6ebd 6374 383e
00000170: 827c c1bd e53d 843d d9d3 8fbd 586a 57be
00000180: 6dad 88be 56d8 003e 80bc c13d 436c 923d
00000190: ffb7 98bd 53b5 2ebd bb0f b43e 6f6a febd
000001a0: 133c 8ebe 6267 a7be ff87 7a3e 5bc7 8b3e
000001b0: 58b1 bbbd af2f 01be 5aca 2fbe ac63 a8bc
000001c0: 7ab5 4fbe 8eb0 95bd 8168 b4be 0344 4c3e
000001d0: b277 333d 765b dbbd 441b 653e 68dc f6bd
000001e0: 2ccb 2d3e 952d 2a3e 0989 373e 12e9 923e
000001f0: 3dce e83d 248f b7bd 4416 3dbe a907 783e
00000200: be35 ad3d 39ea 58bd cbf2 43bd f070 7cbe
00000210: 2ca8 09be 8c61 d33e ceb9 5e3d 6c1d 90be
00000220: b229 d4be 77c1 3e3a e3ea fd3e d8d7 823d
00000230: a9fc adbd 973a 2dbe 62b3 403e 9a2a fdbc
00000240: 7359 e23d a404 fbbb 3471 ddbd ebd4 5ebe
00000250: ad07 823e 37eb e53d 9753 b0be cd37 353e
00000260: 48ce 6c3e a1b6 89bc 67a6 0bbe a157 87be
00000270: 14e3 863e 45c3 be3c 2fa2 cd3d 7b83 5e3d
00000280: b14a 15bc 305f 433e c288 7bbb c9c9 05bd
00000290: 1c5c 903d 2ce8 8bbd 9d8f 203b fa49 3b3e
000002a0: 2bbb 11be ec5b c73d 8c39 f2bd 182f f6bd
000002b0: 70ae c1bd 467a be3d ab64 93bd f61f fdbd
000002c0: c626 bdbe aac7 bb3e 0abf 6a3e a329 cc3d
000002d0: ca8d 25bd 1108 4abe ebb6 c23d 92a8 e03b
000002e0: b0f4 f1bd 8927 4e3e 2898 55be 894a 1abe
000002f0: 883c 953e 4f78 c5bd 7839 4b3e d2e2 493d
00000300: 34ac eabe 4c73 e33d 48f9 413e cec4 e43d
00000310: f85c 423e 376b a0be 5301 53bb 57ce 83bd
00000320: 3c3d d63d b1ae 8c3e ca49 9abe 361e ffbd
00000330: 652a 0ebe 9bf3 6b3e 9a93 923e 64ff 85be
00000340: c82b 163e 9ed4 1fbe daaa 32be e798 533e
00000350: b15d 80bc 0abe a8bc e95c 8e3d 4ed7 a9bc
00000360: 6192 023e 75f3 94be 5abc 6b3e 8b3d 1fbd
00000370: 6a53 2ebe e047 5d3e 97c6 80be 5a2b 0d3e
00000380: 7086 20bd 4624 b2bc 4323 b03d 6437 a33e
00000390: 7db4 873e 3623 353d 5103 ac3e 14aa 1fb8
000003a0: 4720 823c f795 14be 94c0 6d3d 054f 433e
000003b0: 3446 c7be c308 55be 026e 803d 3492 733e
000003c0: 16f3 883e 7e5c 09bf fc70 a1bc 3f7c b93d
000003d0: ca32 6cbe c57b 343e 0a25 d2be 83f3 8dbd
000003e0: 2b2e e2bd 84eb 6d3d a967 003e c704 493d
000003f0: e65a 22be 06dc 103e c8c1 88bb 7612 003d
0.27307913 -0.38404933 -0.1877886 -0.23424548 0.03136918 0.4658628 -0.35135886 -0.28900185
0.1393814 -0.1888576 0.28097102 -0.011010875 0.1784755 0.12937173 -0.12117447 0.21162605
-0.33759913 -0.10369187 0.25557077 0.25407538 0.21223429 -0.1772267 -0.2723206 0.2155508
-0.011797842 0.095681 0.28182817 0.047007896 -0.2641127 0.16398592 0.18759748 0.23146285
0.30895966 -0.2336327 -0.13951866 0.17994529 0.19300087 0.08038609 0.008750158 0.095588796
-0.26737002 -0.30098724 -0.2046677 -0.015262464 -0.055151325 0.1289075 -0.19904576 -0.18900749
0.12178625 -0.110347584 0.100140154 -0.009377672 -0.27162108 -0.16995794 0.096202835 0.1312603
-0.14025909 -0.118894525 0.1732389 -0.026788888 -0.2882066 -0.20968227 0.40828627 0.04474308
-0.10155359 0.018014153 0.11695555 0.14357367 -0.17876077 -0.056746196 -0.09603446 -0.20521256
0.096496865 -0.03877564 0.06257587 0.0019587467 0.11599889 -0.15470786 -0.15864524 0.020722952
-0.013981551 -0.12279803 -0.07310449 0.017850766 0.09564036 0.27323675 0.16005944 0.27811477
0.06686452 0.054172006 -0.058124423 0.18013148 -0.09447576 0.06457118 -0.070228286 -0.2103666
-0.26694813 0.12582526 0.09459782 0.071495555 -0.074569695 -0.042653393 0.3516825 -0.12422644
-0.27780208 -0.32696062 0.24465941 0.27300534 -0.09164685 -0.12615846 -0.17167035 -0.02055534
-0.20284072 -0.07309066 -0.3523598 0.1994782 0.043815322 -0.10710804 0.22373682 -0.12053758
0.16972035 0.1661895 0.17923369 0.28693444 0.11367462 -0.08962849 -0.18465525 0.24221672
0.08457516 -0.052957747 -0.047838967 -0.24652457 -0.13443059 0.4128536 0.054376416 -0.28147447
-0.4143806 0.00072767533 0.49593267 0.06388825 -0.08495457 -0.16916882 0.18818429 -0.030904103
0.11052217 -0.0076604653 -0.108126074 -0.2176091 0.2539648 0.11226504 -0.34438774 0.17697068
0.23125565 -0.016810717 -0.13637696 -0.26434043 0.26345122 0.023286471 0.100407 0.05432461
-0.009112046 0.1907928 -0.0038381075 -0.03266314 0.070488185 -0.06831393 0.0024499663 0.18289939
-0.14231555 0.097343296 -0.118273824 -0.12020701 -0.094570994 0.093006656 -0.07196935 -0.12359612
-0.36943644 0.3667577 0.22924438 0.09968879 -0.040418424 -0.1972964 0.09507545 0.0068560326
-0.118142486 0.20132269 -0.20858824 -0.15067495 0.29147744 -0.09642088 0.19846141 0.04928858
-0.45834506 0.111059755 0.1894275 0.1117035 0.18980777 -0.31331798 -0.0032196834 -0.064358406
0.10460898 0.2747703 -0.30134422 -0.12456934 -0.1388336 0.23042147 0.28628236 -0.2617141
0.14665139 -0.15608451 -0.17447987 0.20663796 -0.015669676 -0.02059843 0.06951315 -0.020732548
0.12751152 -0.29091993 0.23021069 -0.03887705 -0.17024007 0.2160945 -0.25151512 0.13786069
-0.03919071 -0.021745812 0.08600476 0.31878197 0.2650489 0.044223033 0.3359628 -3.806695e-05
0.015884532 -0.14510332 0.058044985 0.19073112 -0.38920748 -0.20804124 0.06270982 0.23786241
0.2674796 -0.53656757 -0.019707195 0.09056901 -0.2306625 0.1762534 -0.41043884 -0.06931212
-0.11043962 0.058085933 0.12539543 0.04907682 -0.15854988 0.14146432 -0.004173491 0.031267606

conv1.0.bias f4 [16]
00000000: 901e 583d 3d6a 10bd baaa 833e b9a8 e9bc
00000010: ffac 31be c2c8 d53c ea2d a7bb a5aa 42bc
00000020: 67b9 da3b 3985 88bd 3300 243d 703a 6f3c
00000030: 4dd3 073c 3c4f 693e a89e e2bd 76d2 b03c
0.05276352 -0.035257567 0.25716192 -0.028522836 -0.17351149 0.026096705 -0.005101909 -0.011881505
0.0066749337 -0.06666035 0.040039252 0.014601335 0.008290124 0.22784132 -0.110654175 0.02158473

conv2.0.weight f4 [32, 16, 5, 5]
00000000: 0491 8e3b ebca 1dbe 3bb0 c03d 9483 7bbd
00000010: 0e20 223d d066 b53d cba0 563c 327e 853e
00000020: d778 303e 93c2 633e 26e5 94be b0ac 0abe
00000030: fe78 f7bc 2fda bcbd 575a 9c3d 1a70 8ebe
00000040: a1fc eaba ed23 b0bd 24d5 ba3c 26fe 8abd
00000050: cae9 aabd b849 593c 7d99 68be ad68 b2ba
00000060: 7658 5a3c b7d8 57bd 6754 c53d f82f 63bd
00000070: 86e9 adbc 4810 46bb 2ad0 4a3d f199 f53d
00000080: 95ad fe3d 605c 44bc 65c7 17be edfe dc3d
00000090: 8d82 893e 82f7 e93d 7d6a 583b cd76 d03d
000000a0: 2e01 f83b 48fd 893d 06e2 aabc 5e4f 89bd
000000b0: 71b3 cbbd e12d 503c d188 753b 3849 f5bd
000000c0: 3259 893c 6e74 393d 7c35 f33d 72ef 063d
000000d0: c1c9 b63c 11b6 ee3d 7f70 bf3d 797c ab3c
000000e0: 038c 8ebc e857 753e c51f 1d3e 5ff1 3b3d
000000f0: bbb8 483d 4941 dfbd 1c93 8abc b308 7e3d
00000100: e9ac a0bd ef45 073e 6d49 583d ed27 e83d
00000110: 0ca2 d93d 3413 9dbd f81e 1a3e 566c da3b
00000120: afc2 193a 4e14 aa3d cfd1 c63c 82a5 473d
00000130: bf32 85bb 7652 aabd bdde 94bd 114f 3abe
00000140: dd79 213d 28d8 df3d 5728 023e 7209 393d
00000150: 6f1a 913c 00d3 343c 8c7d 8dbb d0d5 02bd
00000160: 22de 653c 5549 05bd 0454 03be eba7 e5bd
00000170: 95a3 b7bd 6d5e 0cbc 5b47 95bc 3edd d7bd
00000180: 7537 c6bd f317 dbbc acf2 99bc 5665 223d
00000190: 87e6 093e 3f64 b33d 6b13 6fbe f86b 32be
000001a0: 4bbb 92bd d3ba cc3d eda4 8f3d cb9c 99bd
000001b0: 3da8 d13c 33fa a03d e970 94be 630d d4bd
000001c0: 019a 51be 2d3b ecbd cd8c cbbd aa58 3c3d
000001d0: 7cf2 1ebe 79ff 23be 7d44 30be 22c8 42be
000001e0: 00b2 d43d 121a f4bd d771 ac3d b0f3 44be
000001f0: 649d c03b 784f fe3d cfa2 a9bd 59c1 13be
00000200: d08d 373c 8520 78be 4b6e 36be a243 5cbe
00000210: 2d6b b03c f00d 1fbc f03d 0bbe 1032 a6be
00000220: affa fabe 0c9d 70bd e7ce b73d f3c8 0bbd
00000230: 209f 1bbe 4eb2 60be 11b7 bf3c 0a86 d0bc
00000240: 998e 483d ce41 00be 189c 083d 5f76 0d3e
00000250: e006 ee3d 461a 033e 9e96 283d de20 e637
00000260: 9ea0 09be aade 11bd f679 23bd 0cf6 6ebc
00000270: 18f3 6f3d 9372 8b3d 90b0 e13d bf12 27bd
00000280: a8bf 0c3d c678 bfbd b05a e13c e072 7e3d
00000290: 146a f43c 5235 8ebd a6e6 47be f64d f3bb
000002a0: f775 7c3d d14e 943c d268 debd 060c f9bd
000002b0: 8af6 3bbd 1d07 863a 9a0b 6c3d b494 abbd
000002c0: 8339 103d 48f0 2c3d 49e8 0c3d 8d43 39be
000002d0: b83b 5cbe 5a23 b1bd 2f7d 9c3d 9d25 2fbd
000002e0: 6c66 debd f865 d4bd 7cf3 cabd 5337 ccbd
000002f0: 0683 aabd 08f9 07be 6d3e 07be 8c60 84bc
00000300: bd17 cabd 298c 33bd 0958 473d 81be 8d3d
00000310: afc0 033e 2a4f fa3d 320b 11bd 892d 98bb
00000320: 7f1c 00be 328b 4b3b a174 ae3c b6d6 8abd
00000330: 55ef 803c 8b00 68bd a2ca 833c cfc9 8a3d
00000340: 1502 ef3c 9457 c63d 89d1 88bd c527 1fbd
00000350: c7c9 e73d df92 ce3d 4f61 2c3e f8af 35be
00000360: ed84 afbd 567a 8ebd 9ab4 e2bb fb55 3b3c
00000370: de49 02bd e9de 93bd 1dae 7cbe ab9d 933a
00000380: 90c0 23bd 2064 2fbe 398e a0be 72b8 5d3d
00000390: a10a e9bc d851 063d 8d0e 2abe b7aa 2abe
000003a0: 78cc c5bc e2d7 59be 6f73 a0bd dec1 093d
000003b0: a00b 813e 106a 3c3e be67 62bd b430 3fbe
000003c0: 47d1 17bd 06fe 603e 9b02 60bd 0dff 04be
000003d0: 772c 8e3c 2e2f 183e d354 323e 5089 3f3d
000003e0: 03d4 ff3d 3d3b c43d fc16 edbd 8a56 463d
000003f0: df43 703d 4eda 39be 4e2c f8bb d78f 81bd
0.0043507833 -0.15409438 0.09408613 -0.06140478 0.03958135 0.088575006 0.0130998595 0.26072842
0.17233597 0.22242193 -0.29081076 -0.13542438 -0.03020906 -0.09221303 0.076344185 -0.27819902
-0.0017928072 -0.08600602 0.022806711 -0.06786756 -0.08345373 0.013262205 -0.22714801 -0.0013611518
0.013326755 -0.05269691 0.09635239 -0.05546567 -0.021229517 -0.0030222107 0.049514927 0.119922526
0.12435452 -0.011984915 -0.14822157 0.10790811 0.26857415 0.114241615 0.0033022456 0.101789095
0.0075685 0.06737763 -0.02085973 -0.06704591 -0.09946335 0.012706251 0.0037465582 -0.11976856
0.016766164 0.04527705 0.11875436 0.032943197 0.022313 0.1165582 0.09347629 0.020933377
-0.017400747 0.23959315 0.1534415 0.045884486 0.049004298 -0.10901124 -0.01691585 0.062020015
-0.0784548 0.13210271 0.0528044 0.1133574 0.10626611 -0.07669678 0.15050876 0.0066657467
0.0005865497 0.08304654 0.024269966 0.048741825 -0.0040648873 -0.083165094 -0.072690465 -0.18194224
0.03942286 0.109299004 0.12710701 0.045175023 0.0177128 0.011036634 -0.004317945 -0.03194219
0.014030011 -0.032540638 -0.12825018 -0.112136684 -0.08966748 -0.008567435 -0.018222502 -0.105402455
-0.09678546 -0.026744818 -0.018792473 0.039647423 0.13466845 0.08759355 -0.23347251 -0.17424
-0.071646295 0.099965714 0.07013879 -0.07500609 0.025592918 0.07860222 -0.28992394 -0.10354116
-0.20468904 -0.115347244 -0.09938965 0.045982994 -0.15522188 -0.16015424 -0.17213626 -0.19021657
0.10385513 -0.11919035 0.08420151 -0.19233584 0.0058781374 0.12417501 -0.082830064 -0.14429225
0.011203244 -0.24231155 -0.17815511 -0.21510175 0.02153548 -0.009707913 -0.13597846 -0.3246007
-0.4901938 -0.05874352 0.0897501 -0.034127187 -0.1519742 -0.21943018 0.023402723 -0.02545454
0.048964117 -0.12525102 0.033351988 0.13814686 0.11622405 0.12802991 0.041159265 2.7433442e-05
-0.13440177 -0.03561274 -0.039911233 -0.014585029 0.05858144 0.06808963 0.11020005 -0.040789362
0.034362465 -0.093492076 0.027509063 0.062121272 0.029835738 -0.06943764 -0.19521579 -0.007425065
0.061635938 0.018103989 -0.10859837 -0.121604964 -0.045889415 0.0010225509 0.05762825 -0.08377972
0.035211097 0.042221338 0.034401212 -0.18092175 -0.21507156 -0.08649321 0.076410644 -0.04276048
-0.10859379 -0.103710115 -0.09909722 -0.0997149 -0.08325772 -0.13278592 -0.13207407 -0.016159318
-0.09867809 -0.04383484 0.04866794 0.06921101 0.12866472 0.122221306 -0.035411067 -0.0046441
-0.1251087 0.0031058309 0.021295847 -0.06779234 0.015739122 -0.056641143 0.016087834 0.06776773
0.029175797 0.09684673 -0.06680591 -0.038856287 0.11317783 0.10086607 0.16833995 -0.17742908
-0.085702755 -0.069569275 -0.006918502 0.011434074 -0.031808726 -0.07220251 -0.24675794 0.0011262199
-0.039978564 -0.17128038 -0.31358507 0.05413098 -0.028447451 0.032792896 -0.16607113 -0.16666685
-0.02414535 -0.21273759 -0.07834517 0.03363215 0.25204182 0.18399835 -0.055274718 -0.18670923
-0.037064817 0.21971902 -0.054689985 -0.12987919 0.017355187 0.14861748 0.1741517 0.04676181
0.1249161 0.09581611 -0.115766495 0.048422374 0.058658477 -0.18149683 -0.007573641 -0.063262634

conv2.0.bias f4 [32]
00000000: b2c5 533d c9c4 ff3d 1852 5dbb 5b0c f9bc
00000010: 84ba b23b b6e0 773d d4c9 203d 09c7 46bd
00000020: 4513 553d da15 d23d 9324 85bd 75bb 313e
00000030: 6531 0abc a8fb e2bd d339 46bd e4dc e9bc
00000040: 3165 c63d b792 72bd dd4a 4abd 34f0 c8bc
00000050: cf7c febd 6935 97bc 06f4 f13d 168d 4a3e
00000060: b0d2 3d3e 8460 303e 0d30 b4bd 6b9d 013e
00000070: 415e b9bd 2847 91bd 2479 573c c55c 62bd
0.05170221 0.12488706 -0.0033770856 -0.0304014 0.0054543633 0.060517035 0.03925498 -0.04852966
0.05202033 0.10258074 -0.065011166 0.17356665 -0.008434628 -0.11083156 -0.04839499 -0.028547712
0.096872695 -0.05922195 -0.0493878 -0.0245286 -0.12426149 -0.018458085 0.11814122 0.19780383
0.18537402 0.17224318 -0.087982275 0.12657706 -0.09051181 -0.0709365 0.013151441 -0.055264253

out.weight f4 [10, 1568]
00000000: 5e1a ec3b eeec 1d3c 5094 1fbd 980f 2dbc
00000010: 1300 843e a709 efbd 7119 a6bd 79b7 023d
00000020: a24e 0a3d cba3 f8bd 9ced 743d 86d4 b93d
00000030: c436 acbc 56fc 3bbb 7cbb 2c3d bf2e ad3d
00000040: 6046 42bc b892 4abd e74b 3e3d 0ae3 c1bc
00000050: a457 b03d 8e3b bcbd aa00 8e3d ce73 f83c
00000060: fb48 4ebd 8513 cb3d fe1b 0abe ad6c a13d
00000070: 9fc0 d6bb 291b 4dbd 48f8 f93b af58 dfbd
00000080: 396c af3d 5504 6ebe 54c7 1d3c 554e 92bd
00000090: 2c32 213d fb02 adbd 097d 5fbd 21e1 a1bd
000000a0: 869c 093d 73aa 04bc aa1e 8cbc 6613 ef3c
000000b0: 5865 0d3d b33d ddbb 2c71 6a3c 97a3 9dbd
000000c0: a966 c3bc de04 24bd 3e97 b7bc 1fd6 66bc
000000d0: 6c23 24bc 5aab 58bb 0425 843d 1317 803d
000000e0: a8b4 013d 6bbb 543d cf47 893d da38 30be
000000f0: d072 54bc b530 043d a395 1c3d be30 a83d
00000100: 94fd 5a3d ccb8 6a3d 057b 153c ef63 4d3d
00000110: 9630 e9bc 0ac6 433c 6987 f8bd 836a f03d
00000120: 8391 c93d 4bd5 45bd feb7 943c b0bc bcbd
00000130: f219 44bd e8f6 d8bd cf73 dd3d b39c 913d
00000140: 39f5 e6bd 478c 143b 2dc0 acbd 373c 4fbd
00000150: 242b 35bd 0f66 913d 2e59 5b3d fe01 c2bd
00000160: 5fab 093e e169 33bd 2f10 1dbe ab33 d5bd
00000170: 297b 5ebd 7a08 0a3e 2ba5 d13b 2262 233e
00000180: a0f0 e73c 9fc8 d4bd 2747 713d 583c 223b
00000190: c7c7 a0bc 22bf 2cbc 7653 963c c818 1a3d
000001a0: 11de ea3c 59c7 ca3d c087 973c a825 a7bd
000001b0: f6e9 90bd 3549 2abc 5842 aabd 3cd2 88bd
000001c0: fc2a 8bbd 8b11 c93c e570 0d3e ab83 063e
000001d0: 8115 05bc 1621 593d e726 afbd fe3b 86bc
000001e0: bf31 543d 286d 99ba bbb9 ca3d e88a 76be
000001f0: cc58 22be d35e 17bd 4b7e 8a3d 9099 613d
00000200: 69cb 82bd bd3b f7bd 60a4 80be 4455 1d3d
00000210: adb3 80bd 481e ca3d 13a2 a3bc 956c 33bd
00000220: c91e 0e3d 835d 6cbc d35b 5bbc 85d2 383d
00000230: f231 1bba fa4f e33d 9048 8d3d 2e68 da39
00000240: f4fa cfbc 594d 413c 1a1a d13d 9391 613c
00000250: 743e 61bd 1c33 c5bc 7cb4 8abd 5cd9 ecbc
00000260: 7fb1 563d af48 07bc f95a 003b f3d5 e2bc
00000270: 6e26 ef3c dd99 f1bd 3d34 d63d 219f 8dbd
00000280: a854 15be de66 3e3c be01 313c d0f6 633a
00000290: c00e cc3d 6592 c53d 3ffa 9b3d d720 f9bd
000002a0: 2ae9 90bb 4922 c8bc ba64 22bd 1a4e 003d
000002b0: 5a63 26bd 7582 efbc 35a1 6b3d d342 35bd
000002c0: 7330 973c 2cf1 2dbc 7998 e43d d62c 1abc
000002d0: 474b e83d 0a5d 893d 7c3e 2abd 72b1 bb3c
000002e0: 53bb 1bba 959f 2abd 9ce1 73bb 6fdb 083d
000002f0: 2b55 743c 5c9d 10bd ea58 b63c e79e 68bc
00000300: 60d0 d53b 1baa 15be 009c 17be 2c3a 3d3d
00000310: d296 943c 6786 60bd 01be 96bc 87d1 8c3d
00000320: f356 853c 48ae 60bc 8d17 933c 33ee 553d
00000330: 2205 c83c fb6c b5bd d373 0f3e 069c a03d
00000340: c48c 59bc 9aad bdbd 79bb e83c 8197 a3bc
00000350: 7b4d 853a 0048 fa3d 5a66 6d3d 7115 843c
00000360: 6435 4fbe f5f1 713b 9248 87bd 9945 b2bd
00000370: 68de 983c 941c 463c 48a3 aabd 0f0b 99be
00000380: e217 163d e1f3 8e3c e755 bd3c eb2a aebd
00000390: 8eec 8dbc a04e 90be 16b4 573d 35b3 b4bc
000003a0: 13f4 b13b 7818 583d 9288 c3bc a39a 903d
000003b0: 4d6f cabd 9b32 153e e885 dcbd 4702 a13d
000003c0: 8408 8e3d 7087 acbd 5214 f93d d05f 16be
000003d0: 5ca6 393e 7475 073e e06e d93d 5735 84bc
000003e0: 81ee cbbd e678 e03d 8718 a53c 0fc7 8c3d
000003f0: debe 3d3d f6b5 7c3c eec9 d2bc 93b3 cfbd
0.0072052917 0.009639008 -0.0389598 -0.0105628 0.25781307 -0.11671763 -0.08110321 0.031913254
0.033766396 -0.12140616 0.059796914 0.09073739 -0.021022208 -0.002868434 0.042170987 0.08456182
-0.011857599 -0.04945633 0.046459105 -0.023667831 0.08610466 -0.09191047 0.069337204 0.030328657
-0.05036257 0.099158324 -0.1348724 0.078820564 -0.006553724 -0.05007473 0.0076284744 -0.10905587
0.08565564 -0.2324384 0.009630043 -0.07143847 0.03935449 -0.08447834 -0.054562602 -0.07904268
0.033596538 -0.008097279 -0.017104466 0.029184055 0.034520477 -0.00675174 0.014309209 -0.07697218
-0.023852663 -0.040043704 -0.022410985 -0.014089136 -0.010018211 -0.0033061118 0.06452373 0.06254401
0.031666428 0.05193655 0.067031495 -0.17209187 -0.012966827 0.032273013 0.038228642 0.08212422
0.053464487 0.057305142 0.009123568 0.050144132 -0.02846555 0.011949072 -0.121352024 0.117390655
0.09842207 -0.048299115 0.01815414 -0.09215677 -0.047876306 -0.10593969 0.10813104 0.07109966
-0.11277241 0.002266662 -0.08435092 -0.050594535 -0.044230595 0.07099544 0.053551845 -0.09473036
0.13444279 -0.043802146 -0.15338205 -0.104102455 -0.054316673 0.13479796 0.0063978634 0.15955403
0.028312981 -0.10389828 0.058905747 0.0024755206 -0.019626511 -0.0105436165 0.018350344 0.03762129
0.028670343 0.09901304 0.018497348 -0.08161479 -0.070758745 -0.0103934305 -0.08313435 -0.06680724
-0.06795308 0.024544498 0.13812597 0.13136165 -0.008122803 0.05301007 -0.08552342 -0.016386028
0.051805254 -0.0011705505 0.098987065 -0.24076426 -0.15854186 -0.036955666 0.0676237 0.05507809
-0.06386454 -0.12071941 -0.25125408 0.038411394 -0.062842704 0.09869057 -0.019974744 -0.043804724
0.034697328 -0.014426592 -0.013388592 0.045122642 -0.0005920223 0.11099239 0.06898606 0.0004165782
-0.025388218 0.011798226 0.102100566 0.013767618 -0.0549912 -0.024072222 -0.06772706 -0.028912239
0.052415367 -0.008257075 0.0019585474 -0.02768991 0.02919313 -0.11796925 0.104591824 -0.06915117
-0.14583075 0.011621205 0.010803638 0.0008696141 0.09963751 0.09647063 0.0761609 -0.12164467
-0.0044223266 -0.024430411 -0.03964684 0.031324483 -0.040622093 -0.029237011 0.057526786 -0.04425318
0.01845572 -0.010616582 0.11161894 -0.009410104 0.11342483 0.06707199 -0.041563496 0.022911761
-0.0005940694 -0.041656096 -0.003721333 0.033412393 0.014912884 -0.03530632 0.022259194 -0.0141980415
0.0065250844 -0.14615671 -0.14805603 0.046198055 0.018138323 -0.054815676 -0.018401148 0.06875902
0.016276812 -0.013713427 0.017955566 0.052229118 0.02441651 -0.08858677 0.14009027 0.07842259
-0.01327819 -0.092616275 0.028409706 -0.019969704 0.0010170186 0.12220764 0.05795894 0.016123505
-0.2023521 0.00369179 -0.066056386 -0.08704681 0.018660739 0.0120917745 -0.08331925 -0.2989125
0.03664387 0.017450275 0.02311225 -0.0850428 -0.017324712 -0.28184986 0.052661978 -0.022058109
0.0054307072 0.05275771 -0.023868833 0.070607446 -0.0988451 0.14570086 -0.10767728 0.078617625
0.06935218 -0.0842427 0.12162079 -0.14684987 0.18129867 0.13228399 0.10616851 -0.016138716
-0.099576004 0.109605595 0.020153297 0.06873905 0.046324603 0.015424242 -0.025731053 -0.10141673

out.bias f4 [10]
00000000: 2d12 daba 1a8d 07bd 4c31 d43d 9fef 873c
00000010: 484c 02be ff15 fdbb bca7 ccba 8cd4 433c
00000020: cc95 043c 10bb 18ba
-0.0016637497 -0.03309355 0.10360965 0.016593752 -0.12724411 -0.0077235694 -0.0015613954 0.011952531
0.008092355 -0.00058262143
